…
net: "temp/05-3_layers-10000_initial_images-correct_mostuncertain/network_captchas_with_3_convolutional_layers_train.prototxt"
I1026 00:29:26.212023 29874 solver.cpp:67] Creating training net from net file: temp/05-3_layers-10000_initial_images-correct_mostuncertain/network_captchas_with_3_convolutional_layers_train.prototxt
I1026 00:29:26.214270 29874 net.cpp:39] Initializing net from parameters: 
name: "Captcha"
layers {
  top: "data"
  top: "label"
  name: "mnist"
  type: DATA
  data_param {
    source: "temp/05-3_layers-10000_initial_images-correct_mostuncertain/train_db"
    batch_size: 64
    backend: LMDB
  }
  include {
    phase: TRAIN
  }
  transform_param {
    scale: 0.00390625
  }
}
layers {
  bottom: "data"
  top: "conv1"
  name: "conv1"
  type: CONVOLUTION
  blobs_lr: 1
  blobs_lr: 2
  convolution_param {
    num_output: 48
    pad: 2
    kernel_size: 5
    stride: 2
    weight_filler {
      type: "xavier"
    }
    bias_filler {
      type: "constant"
    }
  }
}
layers {
  bottom: "conv1"
  top: "pool1"
  name: "pool1"
  type: POOLING
  pooling_param {
    pool: MAX
    kernel_size: 2
    stride: 2
  }
}
layers {
  bottom: "pool1"
  top: "pool1"
  name: "relu1"
  type: RELU
}
layers {
  bottom: "pool1"
  top: "pool1"
  name: "drop1"
  type: DROPOUT
  dropout_param {
    dropout_ratio: 0.5
  }
}
layers {
  bottom: "pool1"
  top: "conv2"
  name: "conv2"
  type: CONVOLUTION
  blobs_lr: 1
  blobs_lr: 2
  convolution_param {
    num_output: 64
    pad: 2
    kernel_size: 5
    stride: 1
    weight_filler {
      type: "xavier"
    }
    bias_filler {
      type: "constant"
    }
  }
}
layers {
  bottom: "conv2"
  top: "pool2"
  name: "pool2"
  type: POOLING
  pooling_param {
    pool: MAX
    kernel_size: 2
    stride: 1
  }
}
layers {
  bottom: "pool2"
  top: "pool2"
  name: "relu2"
  type: RELU
}
layers {
  bottom: "pool2"
  top: "pool2"
  name: "drop2"
  type: DROPOUT
  dropout_param {
    dropout_ratio: 0.5
  }
}
layers {
  bottom: "pool2"
  top: "conv3"
  name: "conv3"
  type: CONVOLUTION
  blobs_lr: 1
  blobs_lr: 2
  convolution_param {
    num_output: 128
    pad: 2
    kernel_size: 5
    stride: 1
    weight_filler {
      type: "xavier"
    }
    bias_filler {
      type: "constant"
    }
  }
}
layers {
  bottom: "conv3"
  top: "pool3"
  name: "pool3"
  type: POOLING
  pooling_param {
    pool: MAX
    kernel_size: 2
    stride: 2
  }
}
layers {
  bottom: "pool3"
  top: "pool3"
  name: "relu3"
  type: RELU
}
layers {
  bottom: "pool3"
  top: "pool3"
  name: "drop3"
  type: DROPOUT
  dropout_param {
    dropout_ratio: 0.5
  }
}
layers {
  bottom: "pool3"
  top: "ip1"
  name: "ip1"
  type: INNER_PRODUCT
  blobs_lr: 1
  blobs_lr: 2
  inner_product_param {
    num_output: 3072
    weight_filler {
      type: "xavier"
    }
    bias_filler {
      type: "constant"
    }
  }
}
layers {
  bottom: "ip1"
  top: "ip1"
  name: "relu4"
  type: RELU
}
layers {
  bottom: "ip1"
  top: "ip1"
  name: "drop4"
  type: DROPOUT
  dropout_param {
    dropout_ratio: 0.5
  }
}
layers {
  bottom: "ip1"
  top: "ip2"
  name: "ip2"
  type: INNER_PRODUCT
  blobs_lr: 1
  blobs_lr: 2
  inner_product_param {
    num_output: 378
    weight_filler {
      type: "xavier"
    }
    bias_filler {
      type: "constant"
    }
  }
}
layers {
  bottom: "ip2"
  bottom: "label"
  top: "loss"
  name: "loss"
  type: SOFTMAX_LOSS
}
state {
  phase: TRAIN
}
I1026 00:29:26.214485 29874 net.cpp:67] Creating Layer mnist
I1026 00:29:26.214512 29874 net.cpp:356] mnist -> data
I1026 00:29:26.214547 29874 net.cpp:356] mnist -> label
I1026 00:29:26.214579 29874 net.cpp:96] Setting up mnist
I1026 00:29:26.221263 29874 data_layer.cpp:68] Opening lmdb temp/05-3_layers-10000_initial_images-correct_mostuncertain/train_db
I1026 00:29:26.253363 29874 data_layer.cpp:128] output data size: 64,1,50,180
I1026 00:29:26.254345 29874 net.cpp:103] Top shape: 64 1 50 180 (576000)
I1026 00:29:26.254377 29874 net.cpp:103] Top shape: 64 1 1 1 (64)
I1026 00:29:26.254411 29874 net.cpp:67] Creating Layer conv1
I1026 00:29:26.254426 29874 net.cpp:394] conv1 <- data
I1026 00:29:26.254462 29874 net.cpp:356] conv1 -> conv1
I1026 00:29:26.254490 29874 net.cpp:96] Setting up conv1
I1026 00:29:26.255444 29874 net.cpp:103] Top shape: 64 48 25 90 (6912000)
I1026 00:29:26.255513 29874 net.cpp:67] Creating Layer pool1
I1026 00:29:26.255530 29874 net.cpp:394] pool1 <- conv1
I1026 00:29:26.255548 29874 net.cpp:356] pool1 -> pool1
I1026 00:29:26.255568 29874 net.cpp:96] Setting up pool1
I1026 00:29:26.255600 29874 net.cpp:103] Top shape: 64 48 13 45 (1797120)
I1026 00:29:26.255625 29874 net.cpp:67] Creating Layer relu1
I1026 00:29:26.255638 29874 net.cpp:394] relu1 <- pool1
I1026 00:29:26.255655 29874 net.cpp:345] relu1 -> pool1 (in-place)
I1026 00:29:26.255671 29874 net.cpp:96] Setting up relu1
I1026 00:29:26.255684 29874 net.cpp:103] Top shape: 64 48 13 45 (1797120)
I1026 00:29:26.255703 29874 net.cpp:67] Creating Layer drop1
I1026 00:29:26.255717 29874 net.cpp:394] drop1 <- pool1
I1026 00:29:26.255736 29874 net.cpp:345] drop1 -> pool1 (in-place)
I1026 00:29:26.255754 29874 net.cpp:96] Setting up drop1
I1026 00:29:26.255769 29874 net.cpp:103] Top shape: 64 48 13 45 (1797120)
I1026 00:29:26.255789 29874 net.cpp:67] Creating Layer conv2
I1026 00:29:26.255800 29874 net.cpp:394] conv2 <- pool1
I1026 00:29:26.255821 29874 net.cpp:356] conv2 -> conv2
I1026 00:29:26.255844 29874 net.cpp:96] Setting up conv2
I1026 00:29:26.257066 29874 net.cpp:103] Top shape: 64 64 13 45 (2396160)
I1026 00:29:26.257094 29874 net.cpp:67] Creating Layer pool2
I1026 00:29:26.257103 29874 net.cpp:394] pool2 <- conv2
I1026 00:29:26.257114 29874 net.cpp:356] pool2 -> pool2
I1026 00:29:26.257127 29874 net.cpp:96] Setting up pool2
I1026 00:29:26.257135 29874 net.cpp:103] Top shape: 64 64 12 44 (2162688)
I1026 00:29:26.257145 29874 net.cpp:67] Creating Layer relu2
I1026 00:29:26.257153 29874 net.cpp:394] relu2 <- pool2
I1026 00:29:26.257165 29874 net.cpp:345] relu2 -> pool2 (in-place)
I1026 00:29:26.257176 29874 net.cpp:96] Setting up relu2
I1026 00:29:26.257184 29874 net.cpp:103] Top shape: 64 64 12 44 (2162688)
I1026 00:29:26.257195 29874 net.cpp:67] Creating Layer drop2
I1026 00:29:26.257203 29874 net.cpp:394] drop2 <- pool2
I1026 00:29:26.257213 29874 net.cpp:345] drop2 -> pool2 (in-place)
I1026 00:29:26.257223 29874 net.cpp:96] Setting up drop2
I1026 00:29:26.257232 29874 net.cpp:103] Top shape: 64 64 12 44 (2162688)
I1026 00:29:26.257246 29874 net.cpp:67] Creating Layer conv3
I1026 00:29:26.257254 29874 net.cpp:394] conv3 <- pool2
I1026 00:29:26.257266 29874 net.cpp:356] conv3 -> conv3
I1026 00:29:26.257277 29874 net.cpp:96] Setting up conv3
I1026 00:29:26.259758 29874 net.cpp:103] Top shape: 64 128 12 44 (4325376)
I1026 00:29:26.259793 29874 net.cpp:67] Creating Layer pool3
I1026 00:29:26.259801 29874 net.cpp:394] pool3 <- conv3
I1026 00:29:26.259815 29874 net.cpp:356] pool3 -> pool3
I1026 00:29:26.259829 29874 net.cpp:96] Setting up pool3
I1026 00:29:26.259845 29874 net.cpp:103] Top shape: 64 128 6 22 (1081344)
I1026 00:29:26.259857 29874 net.cpp:67] Creating Layer relu3
I1026 00:29:26.259865 29874 net.cpp:394] relu3 <- pool3
I1026 00:29:26.259874 29874 net.cpp:345] relu3 -> pool3 (in-place)
I1026 00:29:26.259884 29874 net.cpp:96] Setting up relu3
I1026 00:29:26.259892 29874 net.cpp:103] Top shape: 64 128 6 22 (1081344)
I1026 00:29:26.259906 29874 net.cpp:67] Creating Layer drop3
I1026 00:29:26.259913 29874 net.cpp:394] drop3 <- pool3
I1026 00:29:26.259923 29874 net.cpp:345] drop3 -> pool3 (in-place)
I1026 00:29:26.259934 29874 net.cpp:96] Setting up drop3
I1026 00:29:26.259943 29874 net.cpp:103] Top shape: 64 128 6 22 (1081344)
I1026 00:29:26.259954 29874 net.cpp:67] Creating Layer ip1
I1026 00:29:26.259961 29874 net.cpp:394] ip1 <- pool3
I1026 00:29:26.259976 29874 net.cpp:356] ip1 -> ip1
I1026 00:29:26.260025 29874 net.cpp:96] Setting up ip1
I1026 00:29:26.725177 29874 net.cpp:103] Top shape: 64 3072 1 1 (196608)
I1026 00:29:26.725239 29874 net.cpp:67] Creating Layer relu4
I1026 00:29:26.725246 29874 net.cpp:394] relu4 <- ip1
I1026 00:29:26.725256 29874 net.cpp:345] relu4 -> ip1 (in-place)
I1026 00:29:26.725266 29874 net.cpp:96] Setting up relu4
I1026 00:29:26.725271 29874 net.cpp:103] Top shape: 64 3072 1 1 (196608)
I1026 00:29:26.725278 29874 net.cpp:67] Creating Layer drop4
I1026 00:29:26.725282 29874 net.cpp:394] drop4 <- ip1
I1026 00:29:26.725288 29874 net.cpp:345] drop4 -> ip1 (in-place)
I1026 00:29:26.725294 29874 net.cpp:96] Setting up drop4
I1026 00:29:26.725301 29874 net.cpp:103] Top shape: 64 3072 1 1 (196608)
I1026 00:29:26.725316 29874 net.cpp:67] Creating Layer ip2
I1026 00:29:26.725320 29874 net.cpp:394] ip2 <- ip1
I1026 00:29:26.725327 29874 net.cpp:356] ip2 -> ip2
I1026 00:29:26.725337 29874 net.cpp:96] Setting up ip2
I1026 00:29:26.733420 29874 net.cpp:103] Top shape: 64 378 1 1 (24192)
I1026 00:29:26.733489 29874 net.cpp:67] Creating Layer loss
I1026 00:29:26.733497 29874 net.cpp:394] loss <- ip2
I1026 00:29:26.733505 29874 net.cpp:394] loss <- label
I1026 00:29:26.733512 29874 net.cpp:356] loss -> loss
I1026 00:29:26.733522 29874 net.cpp:96] Setting up loss
I1026 00:29:26.733536 29874 net.cpp:103] Top shape: 1 1 1 1 (1)
I1026 00:29:26.733541 29874 net.cpp:109]     with loss weight 1
I1026 00:29:26.733584 29874 net.cpp:170] loss needs backward computation.
I1026 00:29:26.733589 29874 net.cpp:170] ip2 needs backward computation.
I1026 00:29:26.733593 29874 net.cpp:170] drop4 needs backward computation.
I1026 00:29:26.733598 29874 net.cpp:170] relu4 needs backward computation.
I1026 00:29:26.733603 29874 net.cpp:170] ip1 needs backward computation.
…
I1026 07:32:31.549073 29874 solver.cpp:317] Snapshotting to temp/05-3_layers-10000_initial_images-correct_mostuncertain/results/data_iter_50000.caffemodel
I1026 07:32:35.861225 29874 solver.cpp:324] Snapshotting solver state to temp/05-3_layers-10000_initial_images-correct_mostuncertain/results/data_iter_50000.solverstate
I1026 07:32:39.236917 29874 solver.cpp:228] Iteration 50000, loss = 2.79108
I1026 07:32:39.237422 29874 solver.cpp:233] Optimization Done.
I1026 07:32:39.237445 29874 caffe.cpp:121] Optimization Done.
WARNING: Logging before InitGoogleLogging() is written to STDERR
I1026 07:53:02.740896 28033 net.cpp:39] Initializing net from parameters: 
name: "Captcha"
layers {
  bottom: "data"
  top: "conv1"
  name: "conv1"
  type: CONVOLUTION
  blobs_lr: 1
  blobs_lr: 2
  convolution_param {
    num_output: 48
    pad: 2
    kernel_size: 5
    stride: 2
    weight_filler {
      type: "xavier"
    }
    bias_filler {
      type: "constant"
    }
  }
}
layers {
  bottom: "conv1"
  top: "pool1"
  name: "pool1"
  type: POOLING
  pooling_param {
    pool: MAX
    kernel_size: 2
    stride: 2
  }
}
layers {
  bottom: "pool1"
  top: "pool1"
  name: "relu1"
  type: RELU
}
layers {
  bottom: "pool1"
  top: "pool1"
  name: "drop1"
  type: DROPOUT
  dropout_param {
    dropout_ratio: 0.5
  }
}
layers {
  bottom: "pool1"
  top: "conv2"
  name: "conv2"
  type: CONVOLUTION
  blobs_lr: 1
  blobs_lr: 2
  convolution_param {
    num_output: 64
    pad: 2
    kernel_size: 5
    stride: 1
    weight_filler {
      type: "xavier"
    }
    bias_filler {
      type: "constant"
    }
  }
}
layers {
  bottom: "conv2"
  top: "pool2"
  name: "pool2"
  type: POOLING
  pooling_param {
    pool: MAX
    kernel_size: 2
    stride: 1
  }
}
layers {
  bottom: "pool2"
  top: "pool2"
  name: "relu2"
  type: RELU
}
layers {
  bottom: "pool2"
  top: "pool2"
  name: "drop2"
  type: DROPOUT
  dropout_param {
    dropout_ratio: 0.5
  }
}
layers {
  bottom: "pool2"
  top: "conv3"
  name: "conv3"
  type: CONVOLUTION
  blobs_lr: 1
  blobs_lr: 2
  convolution_param {
    num_output: 128
    pad: 2
    kernel_size: 5
    stride: 1
    weight_filler {
      type: "xavier"
    }
    bias_filler {
      type: "constant"
    }
  }
}
layers {
  bottom: "conv3"
  top: "pool3"
  name: "pool3"
  type: POOLING
  pooling_param {
    pool: MAX
    kernel_size: 2
    stride: 2
  }
}
layers {
  bottom: "pool3"
  top: "pool3"
  name: "relu3"
  type: RELU
}
layers {
  bottom: "pool3"
  top: "pool3"
  name: "drop3"
  type: DROPOUT
  dropout_param {
    dropout_ratio: 0.5
  }
}
layers {
  bottom: "pool3"
  top: "ip1"
  name: "ip1"
  type: INNER_PRODUCT
  blobs_lr: 1
  blobs_lr: 2
  inner_product_param {
    num_output: 3072
    weight_filler {
      type: "xavier"
    }
    bias_filler {
      type: "constant"
    }
  }
}
layers {
  bottom: "ip1"
  top: "ip1"
  name: "relu4"
  type: RELU
}
layers {
  bottom: "ip1"
  top: "ip1"
  name: "drop4"
  type: DROPOUT
  dropout_param {
    dropout_ratio: 0.5
  }
}
layers {
  bottom: "ip1"
  top: "ip2"
  name: "ip2"
  type: INNER_PRODUCT
  blobs_lr: 1
  blobs_lr: 2
  inner_product_param {
    num_output: 378
    weight_filler {
      type: "xavier"
    }
    bias_filler {
      type: "constant"
    }
  }
}
layers {
  bottom: "ip2"
  top: "prob"
  name: "prob"
  type: SOFTMAX
}
input: "data"
input_dim: 1
input_dim: 1
input_dim: 50
input_dim: 180
I1026 07:53:02.740999 28033 net.cpp:358] Input 0 -> data
I1026 07:53:02.741024 28033 net.cpp:67] Creating Layer conv1
I1026 07:53:02.741029 28033 net.cpp:394] conv1 <- data
I1026 07:53:02.741035 28033 net.cpp:356] conv1 -> conv1
I1026 07:53:02.741045 28033 net.cpp:96] Setting up conv1
I1026 07:53:02.741358 28033 net.cpp:103] Top shape: 1 48 25 90 (108000)
I1026 07:53:02.741376 28033 net.cpp:67] Creating Layer pool1
I1026 07:53:02.741381 28033 net.cpp:394] pool1 <- conv1
I1026 07:53:02.741387 28033 net.cpp:356] pool1 -> pool1
I1026 07:53:02.741394 28033 net.cpp:96] Setting up pool1
I1026 07:53:02.741408 28033 net.cpp:103] Top shape: 1 48 13 45 (28080)
I1026 07:53:02.741416 28033 net.cpp:67] Creating Layer relu1
I1026 07:53:02.741420 28033 net.cpp:394] relu1 <- pool1
I1026 07:53:02.741427 28033 net.cpp:345] relu1 -> pool1 (in-place)
I1026 07:53:02.741433 28033 net.cpp:96] Setting up relu1
I1026 07:53:02.741438 28033 net.cpp:103] Top shape: 1 48 13 45 (28080)
I1026 07:53:02.741444 28033 net.cpp:67] Creating Layer drop1
I1026 07:53:02.741447 28033 net.cpp:394] drop1 <- pool1
I1026 07:53:02.741453 28033 net.cpp:345] drop1 -> pool1 (in-place)
I1026 07:53:02.741459 28033 net.cpp:96] Setting up drop1
I1026 07:53:02.741463 28033 net.cpp:103] Top shape: 1 48 13 45 (28080)
I1026 07:53:02.741471 28033 net.cpp:67] Creating Layer conv2
I1026 07:53:02.741477 28033 net.cpp:394] conv2 <- pool1
I1026 07:53:02.741483 28033 net.cpp:356] conv2 -> conv2
I1026 07:53:02.741489 28033 net.cpp:96] Setting up conv2
I1026 07:53:02.742045 28033 net.cpp:103] Top shape: 1 64 13 45 (37440)
I1026 07:53:02.742060 28033 net.cpp:67] Creating Layer pool2
I1026 07:53:02.742064 28033 net.cpp:394] pool2 <- conv2
I1026 07:53:02.742072 28033 net.cpp:356] pool2 -> pool2
I1026 07:53:02.742079 28033 net.cpp:96] Setting up pool2
I1026 07:53:02.742085 28033 net.cpp:103] Top shape: 1 64 12 44 (33792)
I1026 07:53:02.742090 28033 net.cpp:67] Creating Layer relu2
I1026 07:53:02.742094 28033 net.cpp:394] relu2 <- pool2
I1026 07:53:02.742101 28033 net.cpp:345] relu2 -> pool2 (in-place)
I1026 07:53:02.742107 28033 net.cpp:96] Setting up relu2
I1026 07:53:02.742111 28033 net.cpp:103] Top shape: 1 64 12 44 (33792)
I1026 07:53:02.742116 28033 net.cpp:67] Creating Layer drop2
I1026 07:53:02.742120 28033 net.cpp:394] drop2 <- pool2
I1026 07:53:02.742125 28033 net.cpp:345] drop2 -> pool2 (in-place)
I1026 07:53:02.742130 28033 net.cpp:96] Setting up drop2
I1026 07:53:02.742136 28033 net.cpp:103] Top shape: 1 64 12 44 (33792)
I1026 07:53:02.742143 28033 net.cpp:67] Creating Layer conv3
I1026 07:53:02.742147 28033 net.cpp:394] conv3 <- pool2
I1026 07:53:02.742153 28033 net.cpp:356] conv3 -> conv3
I1026 07:53:02.742161 28033 net.cpp:96] Setting up conv3
I1026 07:53:02.743605 28033 net.cpp:103] Top shape: 1 128 12 44 (67584)
I1026 07:53:02.743621 28033 net.cpp:67] Creating Layer pool3
I1026 07:53:02.743625 28033 net.cpp:394] pool3 <- conv3
I1026 07:53:02.743633 28033 net.cpp:356] pool3 -> pool3
I1026 07:53:02.743639 28033 net.cpp:96] Setting up pool3
I1026 07:53:02.743645 28033 net.cpp:103] Top shape: 1 128 6 22 (16896)
I1026 07:53:02.743650 28033 net.cpp:67] Creating Layer relu3
I1026 07:53:02.743654 28033 net.cpp:394] relu3 <- pool3
I1026 07:53:02.743659 28033 net.cpp:345] relu3 -> pool3 (in-place)
I1026 07:53:02.743664 28033 net.cpp:96] Setting up relu3
I1026 07:53:02.743669 28033 net.cpp:103] Top shape: 1 128 6 22 (16896)
I1026 07:53:02.743674 28033 net.cpp:67] Creating Layer drop3
I1026 07:53:02.743677 28033 net.cpp:394] drop3 <- pool3
I1026 07:53:02.743685 28033 net.cpp:345] drop3 -> pool3 (in-place)
I1026 07:53:02.743690 28033 net.cpp:96] Setting up drop3
I1026 07:53:02.743695 28033 net.cpp:103] Top shape: 1 128 6 22 (16896)
I1026 07:53:02.743701 28033 net.cpp:67] Creating Layer ip1
I1026 07:53:02.743705 28033 net.cpp:394] ip1 <- pool3
I1026 07:53:02.743712 28033 net.cpp:356] ip1 -> ip1
I1026 07:53:02.743719 28033 net.cpp:96] Setting up ip1
I1026 07:53:03.199214 28033 net.cpp:103] Top shape: 1 3072 1 1 (3072)
I1026 07:53:03.199272 28033 net.cpp:67] Creating Layer relu4
I1026 07:53:03.199280 28033 net.cpp:394] relu4 <- ip1
I1026 07:53:03.199288 28033 net.cpp:345] relu4 -> ip1 (in-place)
I1026 07:53:03.199297 28033 net.cpp:96] Setting up relu4
I1026 07:53:03.199302 28033 net.cpp:103] Top shape: 1 3072 1 1 (3072)
I1026 07:53:03.199312 28033 net.cpp:67] Creating Layer drop4
I1026 07:53:03.199316 28033 net.cpp:394] drop4 <- ip1
I1026 07:53:03.199322 28033 net.cpp:345] drop4 -> ip1 (in-place)
I1026 07:53:03.199328 28033 net.cpp:96] Setting up drop4
I1026 07:53:03.199333 28033 net.cpp:103] Top shape: 1 3072 1 1 (3072)
I1026 07:53:03.199342 28033 net.cpp:67] Creating Layer ip2
I1026 07:53:03.199345 28033 net.cpp:394] ip2 <- ip1
I1026 07:53:03.199353 28033 net.cpp:356] ip2 -> ip2
I1026 07:53:03.199364 28033 net.cpp:96] Setting up ip2
I1026 07:53:03.208513 28033 net.cpp:103] Top shape: 1 378 1 1 (378)
I1026 07:53:03.208575 28033 net.cpp:67] Creating Layer prob
I1026 07:53:03.208582 28033 net.cpp:394] prob <- ip2
I1026 07:53:03.208591 28033 net.cpp:356] prob -> prob
I1026 07:53:03.208601 28033 net.cpp:96] Setting up prob
I1026 07:53:03.208611 28033 net.cpp:103] Top shape: 1 378 1 1 (378)
I1026 07:53:03.208616 28033 net.cpp:172] prob does not need backward computation.
I1026 07:53:03.208619 28033 net.cpp:172] ip2 does not need backward computation.
I1026 07:53:03.208622 28033 net.cpp:172] drop4 does not need backward computation.
I1026 07:53:03.208633 28033 net.cpp:172] relu4 does not need backward computation.
I1026 07:53:03.208637 28033 net.cpp:172] ip1 does not need backward computation.
…
